…
+  contrast_temperature: 0.07
+  proj_num_layers: 2
+  output_dim: 256
+  multi_label: ${data.text_aug.multi_label}
+
+[2025-05-26 09:14:01 group_vit_gcc_ceiling_bs4x1] (main_seg.py 76): INFO Evaluating dataset: <segmentation.datasets.coco_segmentation.CeilingPaintingDataset object at 0x7761e1d7a0a0>
+[2025-05-26 09:14:01 group_vit_gcc_ceiling_bs4x1] (main_seg.py 78): INFO Creating model:MultiLabelContrastive/group_vit_gcc_ceiling_bs4x1
+[2025-05-26 09:14:02 group_vit_gcc_ceiling_bs4x1] (main_seg.py 81): INFO MultiLabelContrastive(
+  (img_encoder): GroupViT(
+    (patch_embed): PatchEmbed(
+      (proj): Conv2d(3, 384, kernel_size=(16, 16), stride=(16, 16))
+      (norm): LayerNorm((384,), eps=1e-05, elementwise_affine=True)
+    )
+    (avgpool): AdaptiveAvgPool1d(output_size=1)
+    (pos_drop): Dropout(p=0.0, inplace=False)
+    (layers): ModuleList(
+      (0): GroupingLayer(
+        dim=384, 
+        input_resolution=196, 
+        depth=6, 
+        num_group_token=64, 
+        
+        (blocks): ModuleList(
+          (0): AttnBlock(
+            (norm1): LayerNorm((384,), eps=1e-05, elementwise_affine=True)
+            (attn): Attention(
+              num_heads=6, 
+              qkv_bias=0.125, 
+              qkv_fuse=True
+              (qkv): Linear(in_features=384, out_features=1152, bias=True)
+              (attn_drop): Dropout(p=0.0, inplace=False)
+              (proj): Linear(in_features=384, out_features=384, bias=True)
+              (proj_drop): Dropout(p=0.0, inplace=False)
+            )
+            (drop_path): Identity()
+            (norm2): LayerNorm((384,), eps=1e-05, elementwise_affine=True)
+            (mlp): Mlp(
+              (fc1): Linear(in_features=384, out_features=1536, bias=True)
+              (act): GELU()
+              (fc2): Linear(in_features=1536, out_features=384, bias=True)
+              (drop): Dropout(p=0.0, inplace=False)
+            )
+          )
+          (1): AttnBlock(
+            (norm1): LayerNorm((384,), eps=1e-05, elementwise_affine=True)
+            (attn): Attention(
+              num_heads=6, 
+              qkv_bias=0.125, 
+              qkv_fuse=True
+              (qkv): Linear(in_features=384, out_features=1152, bias=True)
+              (attn_drop): Dropout(p=0.0, inplace=False)
+              (proj): Linear(in_features=384, out_features=384, bias=True)
+              (proj_drop): Dropout(p=0.0, inplace=False)
+            )
+            (drop_path): DropPath()
+            (norm2): LayerNorm((384,), eps=1e-05, elementwise_affine=True)
+            (mlp): Mlp(
+              (fc1): Linear(in_features=384, out_features=1536, bias=True)
+              (act): GELU()
+              (fc2): Linear(in_features=1536, out_features=384, bias=True)
+              (drop): Dropout(p=0.0, inplace=False)
+            )
+          )
+          (2): AttnBlock(
+            (norm1): LayerNorm((384,), eps=1e-05, elementwise_affine=True)
+            (attn): Attention(
+              num_heads=6, 
+              qkv_bias=0.125, 
+              qkv_fuse=True
+              (qkv): Linear(in_features=384, out_features=1152, bias=True)
+              (attn_drop): Dropout(p=0.0, inplace=False)
+              (proj): Linear(in_features=384, out_features=384, bias=True)
+              (proj_drop): Dropout(p=0.0, inplace=False)
+            )
+            (drop_path): DropPath()
+            (norm2): LayerNorm((384,), eps=1e-05, elementwise_affine=True)
+            (mlp): Mlp(
+              (fc1): Linear(in_features=384, out_features=1536, bias=True)
+              (act): GELU()
+              (fc2): Linear(in_features=1536, out_features=384, bias=True)
+              (drop): Dropout(p=0.0, inplace=False)
+            )
+          )
+          (3): AttnBlock(
+            (norm1): LayerNorm((384,), eps=1e-05, elementwise_affine=True)
+            (attn): Attention(
+              num_heads=6, 
+              qkv_bias=0.125, 
+              qkv_fuse=True
+              (qkv): Linear(in_features=384, out_features=1152, bias=True)
+              (attn_drop): Dropout(p=0.0, inplace=False)
+              (proj): Linear(in_features=384, out_features=384, bias=True)
+              (proj_drop): Dropout(p=0.0, inplace=False)
+            )
+            (drop_path): DropPath()
+            (norm2): LayerNorm((384,), eps=1e-05, elementwise_affine=True)
+            (mlp): Mlp(
+              (fc1): Linear(in_features=384, out_features=1536, bias=True)
+              (act): GELU()
+              (fc2): Linear(in_features=1536, out_features=384, bias=True)
+              (drop): Dropout(p=0.0, inplace=False)
+            )
+          )
+          (4): AttnBlock(
+            (norm1): LayerNorm((384,), eps=1e-05, elementwise_affine=True)
+            (attn): Attention(
+              num_heads=6, 
+              qkv_bias=0.125, 
+              qkv_fuse=True
+              (qkv): Linear(in_features=384, out_features=1152, bias=True)
+              (attn_drop): Dropout(p=0.0, inplace=False)
+              (proj): Linear(in_features=384, out_features=384, bias=True)
+              (proj_drop): Dropout(p=0.0, inplace=False)
+            )
+            (drop_path): DropPath()
+            (norm2): LayerNorm((384,), eps=1e-05, elementwise_affine=True)
+            (mlp): Mlp(
+              (fc1): Linear(in_features=384, out_features=1536, bias=True)
+              (act): GELU()
+              (fc2): Linear(in_features=1536, out_features=384, bias=True)
+              (drop): Dropout(p=0.0, inplace=False)
+            )
+          )
+          (5): AttnBlock(
+            (norm1): LayerNorm((384,), eps=1e-05, elementwise_affine=True)
+            (attn): Attention(
+              num_heads=6, 
+              qkv_bias=0.125, 
+              qkv_fuse=True
+              (qkv): Linear(in_features=384, out_features=1152, bias=True)
+              (attn_drop): Dropout(p=0.0, inplace=False)
+              (proj): Linear(in_features=384, out_features=384, bias=True)
+              (proj_drop): Dropout(p=0.0, inplace=False)
+            )
+            (drop_path): DropPath()
+            (norm2): LayerNorm((384,), eps=1e-05, elementwise_affine=True)
+            (mlp): Mlp(
+              (fc1): Linear(in_features=384, out_features=1536, bias=True)
+              (act): GELU()
+              (fc2): Linear(in_features=1536, out_features=384, bias=True)
+              (drop): Dropout(p=0.0, inplace=False)
+            )
+          )
+        )
+        (downsample): GroupingBlock(
+          hard=True, 
+          gumbel=True, 
+          sum_assign=False, 
+          num_output_group=64, 
+           
+          (norm_tokens): LayerNorm((384,), eps=1e-05, elementwise_affine=True)
+          (mlp_inter): Mlp(
+            (fc1): Linear(in_features=64, out_features=192, bias=True)
+            (act): GELU()
+            (fc2): Linear(in_features=192, out_features=64, bias=True)
+            (drop): Dropout(p=0.0, inplace=False)
+          )
+          (norm_post_tokens): LayerNorm((384,), eps=1e-05, elementwise_affine=True)
+          (norm_x): LayerNorm((384,), eps=1e-05, elementwise_affine=True)
+          (pre_assign_attn): CrossAttnBlock(
+            (norm_post): LayerNorm((384,), eps=1e-05, elementwise_affine=True)
+            (norm_q): Identity()
+            (norm_k): Identity()
+            (attn): Attention(
+              num_heads=6, 
+              qkv_bias=0.125, 
+              qkv_fuse=False
+              (q_proj): Linear(in_features=384, out_features=384, bias=True)
+              (k_proj): Linear(in_features=384, out_features=384, bias=True)
+              (v_proj): Linear(in_features=384, out_features=384, bias=True)
+              (attn_drop): Dropout(p=0.0, inplace=False)
+              (proj): Linear(in_features=384, out_features=384, bias=True)
+              (proj_drop): Dropout(p=0.0, inplace=False)
+            )
+            (drop_path): Identity()
+            (norm2): LayerNorm((384,), eps=1e-05, elementwise_affine=True)
+            (mlp): Mlp(
+              (fc1): Linear(in_features=384, out_features=1536, bias=True)
+              (act): GELU()
+              (fc2): Linear(in_features=1536, out_features=384, bias=True)
+              (drop): Dropout(p=0.0, inplace=False)
+            )
+          )
+          (assign): AssignAttention(
+            num_heads: 1, 
+            hard: True, 
+            gumbel: True, 
+            sum_assign=False, 
+            gumbel_tau: 1.0, 
+            assign_eps: 1.0
+            (q_proj): Linear(in_features=384, out_features=384, bias=True)
+            (k_proj): Linear(in_features=384, out_features=384, bias=True)
+            (v_proj): Linear(in_features=384, out_features=384, bias=True)
+            (attn_drop): Dropout(p=0.0, inplace=False)
+            (proj): Linear(in_features=384, out_features=384, bias=True)
+            (proj_drop): Dropout(p=0.0, inplace=False)
+          )
+          (norm_new_x): LayerNorm((384,), eps=1e-05, elementwise_affine=True)
+          (mlp_channels): Mlp(
+            (fc1): Linear(in_features=384, out_features=1536, bias=True)
+            (act): GELU()
+            (fc2): Linear(in_features=1536, out_features=384, bias=True)
+            (drop): Dropout(p=0.0, inplace=False)
+          )
+          (reduction): Identity()
+        )
+      )
+      (1): GroupingLayer(
+        dim=384, 
+        input_resolution=64, 
+        depth=3, 
+        num_group_token=8, 
+        
+        (blocks): ModuleList(
+          (0): AttnBlock(
+            (norm1): LayerNorm((384,), eps=1e-05, elementwise_affine=True)
+            (attn): Attention(
+              num_heads=6, 
+              qkv_bias=0.125, 
+              qkv_fuse=True
+              (qkv): Linear(in_features=384, out_features=1152, bias=True)
+              (attn_drop): Dropout(p=0.0, inplace=False)
+              (proj): Linear(in_features=384, out_features=384, bias=True)
+              (proj_drop): Dropout(p=0.0, inplace=False)
+            )
+            (drop_path): DropPath()
+            (norm2): LayerNorm((384,), eps=1e-05, elementwise_affine=True)
+            (mlp): Mlp(
+              (fc1): Linear(in_features=384, out_features=1536, bias=True)
+              (act): GELU()
+              (fc2): Linear(in_features=1536, out_features=384, bias=True)
+              (drop): Dropout(p=0.0, inplace=False)
+            )
+          )
+          (1): AttnBlock(
+            (norm1): LayerNorm((384,), eps=1e-05, elementwise_affine=True)
+            (attn): Attention(
+              num_heads=6, 
+              qkv_bias=0.125, 
+              qkv_fuse=True
+              (qkv): Linear(in_features=384, out_features=1152, bias=True)
+              (attn_drop): Dropout(p=0.0, inplace=False)
+              (proj): Linear(in_features=384, out_features=384, bias=True)
+              (proj_drop): Dropout(p=0.0, inplace=False)
+            )
+            (drop_path): DropPath()
+            (norm2): LayerNorm((384,), eps=1e-05, elementwise_affine=True)
+            (mlp): Mlp(
+              (fc1): Linear(in_features=384, out_features=1536, bias=True)
+              (act): GELU()
+              (fc2): Linear(in_features=1536, out_features=384, bias=True)
+              (drop): Dropout(p=0.0, inplace=False)
+            )
+          )
+          (2): AttnBlock(
+            (norm1): LayerNorm((384,), eps=1e-05, elementwise_affine=True)
+            (attn): Attention(
+              num_heads=6, 
+              qkv_bias=0.125, 
+              qkv_fuse=True
+              (qkv): Linear(in_features=384, out_features=1152, bias=True)
+              (attn_drop): Dropout(p=0.0, inplace=False)
+              (proj): Linear(in_features=384, out_features=384, bias=True)
+              (proj_drop): Dropout(p=0.0, inplace=False)
+            )
+            (drop_path): DropPath()
+            (norm2): LayerNorm((384,), eps=1e-05, elementwise_affine=True)
+            (mlp): Mlp(
+              (fc1): Linear(in_features=384, out_features=1536, bias=True)
+              (act): GELU()
+              (fc2): Linear(in_features=1536, out_features=384, bias=True)
+              (drop): Dropout(p=0.0, inplace=False)
+            )
+          )
+        )
+        (downsample): GroupingBlock(
+          hard=True, 
+          gumbel=True, 
+          sum_assign=False, 
+          num_output_group=8, 
+           
+          (norm_tokens): LayerNorm((384,), eps=1e-05, elementwise_affine=True)
+          (mlp_inter): Mlp(
+            (fc1): Linear(in_features=8, out_features=192, bias=True)
+            (act): GELU()
+            (fc2): Linear(in_features=192, out_features=8, bias=True)
+            (drop): Dropout(p=0.0, inplace=False)
+          )
+          (norm_post_tokens): LayerNorm((384,), eps=1e-05, elementwise_affine=True)
+          (norm_x): LayerNorm((384,), eps=1e-05, elementwise_affine=True)
+          (pre_assign_attn): CrossAttnBlock(
+            (norm_post): LayerNorm((384,), eps=1e-05, elementwise_affine=True)
+            (norm_q): Identity()
+            (norm_k): Identity()
+            (attn): Attention(
+              num_heads=6, 
+              qkv_bias=0.125, 
+              qkv_fuse=False
+              (q_proj): Linear(in_features=384, out_features=384, bias=True)
+              (k_proj): Linear(in_features=384, out_features=384, bias=True)
+              (v_proj): Linear(in_features=384, out_features=384, bias=True)
+              (attn_drop): Dropout(p=0.0, inplace=False)
+              (proj): Linear(in_features=384, out_features=384, bias=True)
+              (proj_drop): Dropout(p=0.0, inplace=False)
+            )
+            (drop_path): Identity()
+            (norm2): LayerNorm((384,), eps=1e-05, elementwise_affine=True)
+            (mlp): Mlp(
+              (fc1): Linear(in_features=384, out_features=1536, bias=True)
+              (act): GELU()
+              (fc2): Linear(in_features=1536, out_features=384, bias=True)
+              (drop): Dropout(p=0.0, inplace=False)
+            )
+          )
+          (assign): AssignAttention(
+            num_heads: 1, 
+            hard: True, 
+            gumbel: True, 
+            sum_assign=False, 
+            gumbel_tau: 1.0, 
+            assign_eps: 1.0
+            (q_proj): Linear(in_features=384, out_features=384, bias=True)
+            (k_proj): Linear(in_features=384, out_features=384, bias=True)
+            (v_proj): Linear(in_features=384, out_features=384, bias=True)
+            (attn_drop): Dropout(p=0.0, inplace=False)
+            (proj): Linear(in_features=384, out_features=384, bias=True)
+            (proj_drop): Dropout(p=0.0, inplace=False)
+          )
+          (norm_new_x): LayerNorm((384,), eps=1e-05, elementwise_affine=True)
+          (mlp_channels): Mlp(
+            (fc1): Linear(in_features=384, out_features=1536, bias=True)
+            (act): GELU()
+            (fc2): Linear(in_features=1536, out_features=384, bias=True)
+            (drop): Dropout(p=0.0, inplace=False)
+          )
+          (reduction): Identity()
+        )
+        (group_projector): Sequential(
+          (0): LayerNorm((384,), eps=1e-05, elementwise_affine=True)
+          (1): MixerMlp(
+            (fc1): Linear(in_features=64, out_features=192, bias=True)
+            (act): GELU()
+            (fc2): Linear(in_features=192, out_features=8, bias=True)
+            (drop): Dropout(p=0.0, inplace=False)
+          )
+        )
+      )
+      (2): GroupingLayer(
+        dim=384, 
+        input_resolution=8, 
+        depth=3, 
+        num_group_token=0, 
+        
+        (blocks): ModuleList(
+          (0): AttnBlock(
+            (norm1): LayerNorm((384,), eps=1e-05, elementwise_affine=True)
+            (attn): Attention(
+              num_heads=6, 
+              qkv_bias=0.125, 
+              qkv_fuse=True
+              (qkv): Linear(in_features=384, out_features=1152, bias=True)
+              (attn_drop): Dropout(p=0.0, inplace=False)
+              (proj): Linear(in_features=384, out_features=384, bias=True)
+              (proj_drop): Dropout(p=0.0, inplace=False)
+            )
+            (drop_path): DropPath()
+            (norm2): LayerNorm((384,), eps=1e-05, elementwise_affine=True)
+            (mlp): Mlp(
+              (fc1): Linear(in_features=384, out_features=1536, bias=True)
+              (act): GELU()
+              (fc2): Linear(in_features=1536, out_features=384, bias=True)
+              (drop): Dropout(p=0.0, inplace=False)
+            )
+          )
+          (1): AttnBlock(
+            (norm1): LayerNorm((384,), eps=1e-05, elementwise_affine=True)
+            (attn): Attention(
+              num_heads=6, 
+              qkv_bias=0.125, 
+              qkv_fuse=True
+              (qkv): Linear(in_features=384, out_features=1152, bias=True)
+              (attn_drop): Dropout(p=0.0, inplace=False)
+              (proj): Linear(in_features=384, out_features=384, bias=True)
+              (proj_drop): Dropout(p=0.0, inplace=False)
+            )
+            (drop_path): DropPath()
+            (norm2): LayerNorm((384,), eps=1e-05, elementwise_affine=True)
+            (mlp): Mlp(
+              (fc1): Linear(in_features=384, out_features=1536, bias=True)
+              (act): GELU()
+              (fc2): Linear(in_features=1536, out_features=384, bias=True)
+              (drop): Dropout(p=0.0, inplace=False)
+            )
+          )
+          (2): AttnBlock(
+            (norm1): LayerNorm((384,), eps=1e-05, elementwise_affine=True)
+            (attn): Attention(
+              num_heads=6, 
+              qkv_bias=0.125, 
+              qkv_fuse=True
+              (qkv): Linear(in_features=384, out_features=1152, bias=True)
+              (attn_drop): Dropout(p=0.0, inplace=False)
+              (proj): Linear(in_features=384, out_features=384, bias=True)
+              (proj_drop): Dropout(p=0.0, inplace=False)
+            )
+            (drop_path): DropPath()
+            (norm2): LayerNorm((384,), eps=1e-05, elementwise_affine=True)
+            (mlp): Mlp(
+              (fc1): Linear(in_features=384, out_features=1536, bias=True)
+              (act): GELU()
+              (fc2): Linear(in_features=1536, out_features=384, bias=True)
+              (drop): Dropout(p=0.0, inplace=False)
+            )
+          )
+        )
+      )
+    )
+    (norm): LayerNorm((384,), eps=1e-05, elementwise_affine=True)
+    (head): Identity()
+  )
+  (text_encoder): TextTransformer(
+    (transformer): Transformer(
+      (resblocks): Sequential(
+        (0): ResidualAttentionBlock(
+          (attn): MultiheadAttention(
+            (out_proj): _LinearWithBias(in_features=256, out_features=256, bias=True)
+          )
+          (ln_1): LayerNorm((256,), eps=1e-05, elementwise_affine=True)
+          (mlp): Sequential(
+            (c_fc): Linear(in_features=256, out_features=1024, bias=True)
+            (gelu): QuickGELU()
+            (c_proj): Linear(in_features=1024, out_features=256, bias=True)
+          )
+          (ln_2): LayerNorm((256,), eps=1e-05, elementwise_affine=True)
+        )
+        (1): ResidualAttentionBlock(
+          (attn): MultiheadAttention(
+            (out_proj): _LinearWithBias(in_features=256, out_features=256, bias=True)
+          )
+          (ln_1): LayerNorm((256,), eps=1e-05, elementwise_affine=True)
+          (mlp): Sequential(
+            (c_fc): Linear(in_features=256, out_features=1024, bias=True)
+            (gelu): QuickGELU()
+            (c_proj): Linear(in_features=1024, out_features=256, bias=True)
+          )
+          (ln_2): LayerNorm((256,), eps=1e-05, elementwise_affine=True)
+        )
+        (2): ResidualAttentionBlock(
+          (attn): MultiheadAttention(
+            (out_proj): _LinearWithBias(in_features=256, out_features=256, bias=True)
+          )
+          (ln_1): LayerNorm((256,), eps=1e-05, elementwise_affine=True)
+          (mlp): Sequential(
+            (c_fc): Linear(in_features=256, out_features=1024, bias=True)
+            (gelu): QuickGELU()
+            (c_proj): Linear(in_features=1024, out_features=256, bias=True)
+          )
+          (ln_2): LayerNorm((256,), eps=1e-05, elementwise_affine=True)
+        )
+        (3): ResidualAttentionBlock(
+          (attn): MultiheadAttention(
+            (out_proj): _LinearWithBias(in_features=256, out_features=256, bias=True)
+          )
+          (ln_1): LayerNorm((256,), eps=1e-05, elementwise_affine=True)
+          (mlp): Sequential(
+            (c_fc): Linear(in_features=256, out_features=1024, bias=True)
+            (gelu): QuickGELU()
+            (c_proj): Linear(in_features=1024, out_features=256, bias=True)
+          )
+          (ln_2): LayerNorm((256,), eps=1e-05, elementwise_affine=True)
+        )
+        (4): ResidualAttentionBlock(
+          (attn): MultiheadAttention(
+            (out_proj): _LinearWithBias(in_features=256, out_features=256, bias=True)
+          )
+          (ln_1): LayerNorm((256,), eps=1e-05, elementwise_affine=True)
+          (mlp): Sequential(
+            (c_fc): Linear(in_features=256, out_features=1024, bias=True)
+            (gelu): QuickGELU()
+            (c_proj): Linear(in_features=1024, out_features=256, bias=True)
+          )
+          (ln_2): LayerNorm((256,), eps=1e-05, elementwise_affine=True)
+        )
+        (5): ResidualAttentionBlock(
+          (attn): MultiheadAttention(
+            (out_proj): _LinearWithBias(in_features=256, out_features=256, bias=True)
+          )
+          (ln_1): LayerNorm((256,), eps=1e-05, elementwise_affine=True)
+          (mlp): Sequential(
+            (c_fc): Linear(in_features=256, out_features=1024, bias=True)
+            (gelu): QuickGELU()
+            (c_proj): Linear(in_features=1024, out_features=256, bias=True)
+          )
+          (ln_2): LayerNorm((256,), eps=1e-05, elementwise_affine=True)
+        )
+        (6): ResidualAttentionBlock(
+          (attn): MultiheadAttention(
+            (out_proj): _LinearWithBias(in_features=256, out_features=256, bias=True)
+          )
+          (ln_1): LayerNorm((256,), eps=1e-05, elementwise_affine=True)
+          (mlp): Sequential(
+            (c_fc): Linear(in_features=256, out_features=1024, bias=True)
+            (gelu): QuickGELU()
+            (c_proj): Linear(in_features=1024, out_features=256, bias=True)
+          )
+          (ln_2): LayerNorm((256,), eps=1e-05, elementwise_affine=True)
+        )
+        (7): ResidualAttentionBlock(
+          (attn): MultiheadAttention(
+            (out_proj): _LinearWithBias(in_features=256, out_features=256, bias=True)
+          )
+          (ln_1): LayerNorm((256,), eps=1e-05, elementwise_affine=True)
+          (mlp): Sequential(
+            (c_fc): Linear(in_features=256, out_features=1024, bias=True)
+            (gelu): QuickGELU()
+            (c_proj): Linear(in_features=1024, out_features=256, bias=True)
+          )
+          (ln_2): LayerNorm((256,), eps=1e-05, elementwise_affine=True)
+        )
+        (8): ResidualAttentionBlock(
+          (attn): MultiheadAttention(
+            (out_proj): _LinearWithBias(in_features=256, out_features=256, bias=True)
+          )
+          (ln_1): LayerNorm((256,), eps=1e-05, elementwise_affine=True)
+          (mlp): Sequential(
+            (c_fc): Linear(in_features=256, out_features=1024, bias=True)
+            (gelu): QuickGELU()
+            (c_proj): Linear(in_features=1024, out_features=256, bias=True)
+          )
+          (ln_2): LayerNorm((256,), eps=1e-05, elementwise_affine=True)
+        )
+        (9): ResidualAttentionBlock(
+          (attn): MultiheadAttention(
+            (out_proj): _LinearWithBias(in_features=256, out_features=256, bias=True)
+          )
+          (ln_1): LayerNorm((256,), eps=1e-05, elementwise_affine=True)
+          (mlp): Sequential(
+            (c_fc): Linear(in_features=256, out_features=1024, bias=True)
+            (gelu): QuickGELU()
+            (c_proj): Linear(in_features=1024, out_features=256, bias=True)
+          )
+          (ln_2): LayerNorm((256,), eps=1e-05, elementwise_affine=True)
+        )
+        (10): ResidualAttentionBlock(
+          (attn): MultiheadAttention(
+            (out_proj): _LinearWithBias(in_features=256, out_features=256, bias=True)
+          )
+          (ln_1): LayerNorm((256,), eps=1e-05, elementwise_affine=True)
+          (mlp): Sequential(
+            (c_fc): Linear(in_features=256, out_features=1024, bias=True)
+            (gelu): QuickGELU()
+            (c_proj): Linear(in_features=1024, out_features=256, bias=True)
+          )
+          (ln_2): LayerNorm((256,), eps=1e-05, elementwise_affine=True)
+        )
+        (11): ResidualAttentionBlock(
+          (attn): MultiheadAttention(
+            (out_proj): _LinearWithBias(in_features=256, out_features=256, bias=True)
+          )
+          (ln_1): LayerNorm((256,), eps=1e-05, elementwise_affine=True)
+          (mlp): Sequential(
+            (c_fc): Linear(in_features=256, out_features=1024, bias=True)
+            (gelu): QuickGELU()
+            (c_proj): Linear(in_features=1024, out_features=256, bias=True)
+          )
+          (ln_2): LayerNorm((256,), eps=1e-05, elementwise_affine=True)
+        )
+      )
+    )
+    (ln_final): LayerNorm((256,), eps=1e-05, elementwise_affine=True)
+    (token_embedding): Embedding(49408, 256)
+  )
+  (cross_entropy): CrossEntropyLoss()
+  (soft_cross_entropy): SoftTargetCrossEntropy()
+  (img_projector): ProjectMLP(
+    (linear_hidden): Sequential(
+      (0): Conv1d(384, 4096, kernel_size=(1,), stride=(1,))
+      (1): SyncBatchNorm(4096, eps=1e-05, momentum=0.1, affine=True, track_running_stats=True)
+      (2): ReLU(inplace=True)
+    )
+    (linear_out): Conv1d(4096, 256, kernel_size=(1,), stride=(1,))
+  )
+  (text_projector): ProjectMLP(
+    (linear_hidden): Sequential(
+      (0): Conv1d(256, 4096, kernel_size=(1,), stride=(1,))
+      (1): SyncBatchNorm(4096, eps=1e-05, momentum=0.1, affine=True, track_running_stats=True)
+      (2): ReLU(inplace=True)
+    )
+    (linear_out): Conv1d(4096, 256, kernel_size=(1,), stride=(1,))
+  )
+)
+[2025-05-26 09:14:02 group_vit_gcc_ceiling_bs4x1] (main_seg.py 87): INFO number of params: 55726609
+[2025-05-26 09:14:02 group_vit_gcc_ceiling_bs4x1] (checkpoint.py 48): INFO ==============> Resuming form pretrained_weights/group_vit_gcc_yfcc_30e-879422e0.pth....................
+[2025-05-26 09:14:02 group_vit_gcc_ceiling_bs4x1] (checkpoint.py 51): INFO _IncompatibleKeys(missing_keys=[], unexpected_keys=['multi_label_logit_scale'])
…
