…
    ENABLED: false
    FLIP: true
    MAX_SIZE: 4000
    MIN_SIZES:
    - 400
    - 500
    - 600
    - 700
    - 800
    - 900
    - 1000
    - 1100
    - 1200
  DETECTIONS_PER_IMAGE: 100
  EVAL_PERIOD: 368751
  EXPECTED_RESULTS: []
  KEYPOINT_OKS_SIGMAS: []
  PRECISE_BN:
    ENABLED: false
    NUM_ITER: 200
VERSION: 2
VIS_PERIOD: 0

[05/15 07:27:32] detectron2 INFO: Full config saved to ./output/config.yaml
[05/15 07:27:32] d2.utils.env INFO: Using a generated random seed 33633695
[05/15 07:27:48] d2.engine.defaults INFO: Model:
MaskFormer(
  (backbone): ResNet(
    (stem): BasicStem(
      (conv1): Conv2d(
        3, 64, kernel_size=(7, 7), stride=(2, 2), padding=(3, 3), bias=False
        (norm): FrozenBatchNorm2d(num_features=64, eps=1e-05)
      )
    )
    (res2): Sequential(
      (0): BottleneckBlock(
        (shortcut): Conv2d(
          64, 256, kernel_size=(1, 1), stride=(1, 1), bias=False
          (norm): FrozenBatchNorm2d(num_features=256, eps=1e-05)
        )
        (conv1): Conv2d(
          64, 64, kernel_size=(1, 1), stride=(1, 1), bias=False
          (norm): FrozenBatchNorm2d(num_features=64, eps=1e-05)
        )
        (conv2): Conv2d(
          64, 64, kernel_size=(3, 3), stride=(1, 1), padding=(1, 1), bias=False
          (norm): FrozenBatchNorm2d(num_features=64, eps=1e-05)
        )
        (conv3): Conv2d(
          64, 256, kernel_size=(1, 1), stride=(1, 1), bias=False
          (norm): FrozenBatchNorm2d(num_features=256, eps=1e-05)
        )
      )
      (1): BottleneckBlock(
        (conv1): Conv2d(
          256, 64, kernel_size=(1, 1), stride=(1, 1), bias=False
          (norm): FrozenBatchNorm2d(num_features=64, eps=1e-05)
        )
        (conv2): Conv2d(
          64, 64, kernel_size=(3, 3), stride=(1, 1), padding=(1, 1), bias=False
          (norm): FrozenBatchNorm2d(num_features=64, eps=1e-05)
        )
        (conv3): Conv2d(
          64, 256, kernel_size=(1, 1), stride=(1, 1), bias=False
          (norm): FrozenBatchNorm2d(num_features=256, eps=1e-05)
        )
      )
      (2): BottleneckBlock(
        (conv1): Conv2d(
          256, 64, kernel_size=(1, 1), stride=(1, 1), bias=False
          (norm): FrozenBatchNorm2d(num_features=64, eps=1e-05)
        )
        (conv2): Conv2d(
          64, 64, kernel_size=(3, 3), stride=(1, 1), padding=(1, 1), bias=False
          (norm): FrozenBatchNorm2d(num_features=64, eps=1e-05)
        )
        (conv3): Conv2d(
          64, 256, kernel_size=(1, 1), stride=(1, 1), bias=False
          (norm): FrozenBatchNorm2d(num_features=256, eps=1e-05)
        )
      )
    )
    (res3): Sequential(
      (0): BottleneckBlock(
        (shortcut): Conv2d(
          256, 512, kernel_size=(1, 1), stride=(2, 2), bias=False
          (norm): FrozenBatchNorm2d(num_features=512, eps=1e-05)
        )
        (conv1): Conv2d(
          256, 128, kernel_size=(1, 1), stride=(1, 1), bias=False
          (norm): FrozenBatchNorm2d(num_features=128, eps=1e-05)
        )
        (conv2): Conv2d(
          128, 128, kernel_size=(3, 3), stride=(2, 2), padding=(1, 1), bias=False
          (norm): FrozenBatchNorm2d(num_features=128, eps=1e-05)
        )
        (conv3): Conv2d(
          128, 512, kernel_size=(1, 1), stride=(1, 1), bias=False
          (norm): FrozenBatchNorm2d(num_features=512, eps=1e-05)
        )
      )
      (1): BottleneckBlock(
        (conv1): Conv2d(
          512, 128, kernel_size=(1, 1), stride=(1, 1), bias=False
          (norm): FrozenBatchNorm2d(num_features=128, eps=1e-05)
        )
        (conv2): Conv2d(
          128, 128, kernel_size=(3, 3), stride=(1, 1), padding=(1, 1), bias=False
          (norm): FrozenBatchNorm2d(num_features=128, eps=1e-05)
        )
        (conv3): Conv2d(
          128, 512, kernel_size=(1, 1), stride=(1, 1), bias=False
          (norm): FrozenBatchNorm2d(num_features=512, eps=1e-05)
        )
      )
      (2): BottleneckBlock(
        (conv1): Conv2d(
          512, 128, kernel_size=(1, 1), stride=(1, 1), bias=False
          (norm): FrozenBatchNorm2d(num_features=128, eps=1e-05)
        )
        (conv2): Conv2d(
          128, 128, kernel_size=(3, 3), stride=(1, 1), padding=(1, 1), bias=False
          (norm): FrozenBatchNorm2d(num_features=128, eps=1e-05)
        )
        (conv3): Conv2d(
          128, 512, kernel_size=(1, 1), stride=(1, 1), bias=False
          (norm): FrozenBatchNorm2d(num_features=512, eps=1e-05)
        )
      )
      (3): BottleneckBlock(
        (conv1): Conv2d(
          512, 128, kernel_size=(1, 1), stride=(1, 1), bias=False
          (norm): FrozenBatchNorm2d(num_features=128, eps=1e-05)
        )
        (conv2): Conv2d(
          128, 128, kernel_size=(3, 3), stride=(1, 1), padding=(1, 1), bias=False
          (norm): FrozenBatchNorm2d(num_features=128, eps=1e-05)
        )
        (conv3): Conv2d(
          128, 512, kernel_size=(1, 1), stride=(1, 1), bias=False
          (norm): FrozenBatchNorm2d(num_features=512, eps=1e-05)
        )
      )
    )
    (res4): Sequential(
      (0): BottleneckBlock(
        (shortcut): Conv2d(
          512, 1024, kernel_size=(1, 1), stride=(2, 2), bias=False
          (norm): FrozenBatchNorm2d(num_features=1024, eps=1e-05)
        )
        (conv1): Conv2d(
          512, 256, kernel_size=(1, 1), stride=(1, 1), bias=False
          (norm): FrozenBatchNorm2d(num_features=256, eps=1e-05)
        )
        (conv2): Conv2d(
          256, 256, kernel_size=(3, 3), stride=(2, 2), padding=(1, 1), bias=False
          (norm): FrozenBatchNorm2d(num_features=256, eps=1e-05)
        )
        (conv3): Conv2d(
          256, 1024, kernel_size=(1, 1), stride=(1, 1), bias=False
          (norm): FrozenBatchNorm2d(num_features=1024, eps=1e-05)
        )
      )
      (1): BottleneckBlock(
        (conv1): Conv2d(
          1024, 256, kernel_size=(1, 1), stride=(1, 1), bias=False
          (norm): FrozenBatchNorm2d(num_features=256, eps=1e-05)
        )
        (conv2): Conv2d(
          256, 256, kernel_size=(3, 3), stride=(1, 1), padding=(1, 1), bias=False
          (norm): FrozenBatchNorm2d(num_features=256, eps=1e-05)
        )
        (conv3): Conv2d(
          256, 1024, kernel_size=(1, 1), stride=(1, 1), bias=False
          (norm): FrozenBatchNorm2d(num_features=1024, eps=1e-05)
        )
      )
      (2): BottleneckBlock(
        (conv1): Conv2d(
          1024, 256, kernel_size=(1, 1), stride=(1, 1), bias=False
          (norm): FrozenBatchNorm2d(num_features=256, eps=1e-05)
        )
        (conv2): Conv2d(
          256, 256, kernel_size=(3, 3), stride=(1, 1), padding=(1, 1), bias=False
          (norm): FrozenBatchNorm2d(num_features=256, eps=1e-05)
        )
        (conv3): Conv2d(
          256, 1024, kernel_size=(1, 1), stride=(1, 1), bias=False
          (norm): FrozenBatchNorm2d(num_features=1024, eps=1e-05)
        )
      )
      (3): BottleneckBlock(
        (conv1): Conv2d(
          1024, 256, kernel_size=(1, 1), stride=(1, 1), bias=False
          (norm): FrozenBatchNorm2d(num_features=256, eps=1e-05)
        )
        (conv2): Conv2d(
          256, 256, kernel_size=(3, 3), stride=(1, 1), padding=(1, 1), bias=False
          (norm): FrozenBatchNorm2d(num_features=256, eps=1e-05)
        )
        (conv3): Conv2d(
          256, 1024, kernel_size=(1, 1), stride=(1, 1), bias=False
          (norm): FrozenBatchNorm2d(num_features=1024, eps=1e-05)
        )
      )
      (4): BottleneckBlock(
        (conv1): Conv2d(
          1024, 256, kernel_size=(1, 1), stride=(1, 1), bias=False
          (norm): FrozenBatchNorm2d(num_features=256, eps=1e-05)
        )
        (conv2): Conv2d(
          256, 256, kernel_size=(3, 3), stride=(1, 1), padding=(1, 1), bias=False
          (norm): FrozenBatchNorm2d(num_features=256, eps=1e-05)
        )
        (conv3): Conv2d(
          256, 1024, kernel_size=(1, 1), stride=(1, 1), bias=False
          (norm): FrozenBatchNorm2d(num_features=1024, eps=1e-05)
        )
      )
      (5): BottleneckBlock(
        (conv1): Conv2d(
          1024, 256, kernel_size=(1, 1), stride=(1, 1), bias=False
          (norm): FrozenBatchNorm2d(num_features=256, eps=1e-05)
        )
        (conv2): Conv2d(
          256, 256, kernel_size=(3, 3), stride=(1, 1), padding=(1, 1), bias=False
          (norm): FrozenBatchNorm2d(num_features=256, eps=1e-05)
        )
        (conv3): Conv2d(
          256, 1024, kernel_size=(1, 1), stride=(1, 1), bias=False
          (norm): FrozenBatchNorm2d(num_features=1024, eps=1e-05)
        )
      )
    )
    (res5): Sequential(
      (0): BottleneckBlock(
        (shortcut): Conv2d(
          1024, 2048, kernel_size=(1, 1), stride=(2, 2), bias=False
          (norm): FrozenBatchNorm2d(num_features=2048, eps=1e-05)
        )
        (conv1): Conv2d(
          1024, 512, kernel_size=(1, 1), stride=(1, 1), bias=False
          (norm): FrozenBatchNorm2d(num_features=512, eps=1e-05)
        )
        (conv2): Conv2d(
          512, 512, kernel_size=(3, 3), stride=(2, 2), padding=(1, 1), bias=False
          (norm): FrozenBatchNorm2d(num_features=512, eps=1e-05)
        )
        (conv3): Conv2d(
          512, 2048, kernel_size=(1, 1), stride=(1, 1), bias=False
          (norm): FrozenBatchNorm2d(num_features=2048, eps=1e-05)
        )
      )
      (1): BottleneckBlock(
        (conv1): Conv2d(
          2048, 512, kernel_size=(1, 1), stride=(1, 1), bias=False
          (norm): FrozenBatchNorm2d(num_features=512, eps=1e-05)
        )
        (conv2): Conv2d(
          512, 512, kernel_size=(3, 3), stride=(1, 1), padding=(1, 1), bias=False
          (norm): FrozenBatchNorm2d(num_features=512, eps=1e-05)
        )
        (conv3): Conv2d(
          512, 2048, kernel_size=(1, 1), stride=(1, 1), bias=False
          (norm): FrozenBatchNorm2d(num_features=2048, eps=1e-05)
        )
      )
      (2): BottleneckBlock(
        (conv1): Conv2d(
          2048, 512, kernel_size=(1, 1), stride=(1, 1), bias=False
          (norm): FrozenBatchNorm2d(num_features=512, eps=1e-05)
        )
        (conv2): Conv2d(
          512, 512, kernel_size=(3, 3), stride=(1, 1), padding=(1, 1), bias=False
          (norm): FrozenBatchNorm2d(num_features=512, eps=1e-05)
        )
        (conv3): Conv2d(
          512, 2048, kernel_size=(1, 1), stride=(1, 1), bias=False
          (norm): FrozenBatchNorm2d(num_features=2048, eps=1e-05)
        )
      )
    )
  )
  (sem_seg_head): MaskFormerHead(
    (pixel_decoder): MSDeformAttnPixelDecoder(
      (input_proj): ModuleList(
        (0): Sequential(
          (0): Conv2d(2048, 256, kernel_size=(1, 1), stride=(1, 1))
          (1): GroupNorm(32, 256, eps=1e-05, affine=True)
        )
        (1): Sequential(
          (0): Conv2d(1024, 256, kernel_size=(1, 1), stride=(1, 1))
          (1): GroupNorm(32, 256, eps=1e-05, affine=True)
        )
        (2): Sequential(
          (0): Conv2d(512, 256, kernel_size=(1, 1), stride=(1, 1))
          (1): GroupNorm(32, 256, eps=1e-05, affine=True)
        )
      )
      (transformer): MSDeformAttnTransformerEncoderOnly(
        (encoder): MSDeformAttnTransformerEncoder(
          (layers): ModuleList(
            (0-5): 6 x MSDeformAttnTransformerEncoderLayer(
              (self_attn): MSDeformAttn(
                (sampling_offsets): Linear(in_features=256, out_features=192, bias=True)
                (attention_weights): Linear(in_features=256, out_features=96, bias=True)
                (value_proj): Linear(in_features=256, out_features=256, bias=True)
                (output_proj): Linear(in_features=256, out_features=256, bias=True)
              )
              (dropout1): Dropout(p=0.0, inplace=False)
              (norm1): LayerNorm((256,), eps=1e-05, elementwise_affine=True)
              (linear1): Linear(in_features=256, out_features=1024, bias=True)
              (dropout2): Dropout(p=0.0, inplace=False)
              (linear2): Linear(in_features=1024, out_features=256, bias=True)
              (dropout3): Dropout(p=0.0, inplace=False)
              (norm2): LayerNorm((256,), eps=1e-05, elementwise_affine=True)
            )
          )
        )
      )
      (pe_layer): Positional encoding PositionEmbeddingSine
          num_pos_feats: 128
          temperature: 10000
          normalize: True
          scale: 6.283185307179586
      (mask_features): Conv2d(256, 256, kernel_size=(1, 1), stride=(1, 1))
      (adapter_1): Conv2d(
        256, 256, kernel_size=(1, 1), stride=(1, 1), bias=False
        (norm): GroupNorm(32, 256, eps=1e-05, affine=True)
      )
      (layer_1): Conv2d(
        256, 256, kernel_size=(3, 3), stride=(1, 1), padding=(1, 1), bias=False
        (norm): GroupNorm(32, 256, eps=1e-05, affine=True)
      )
    )
    (predictor): MultiScaleMaskedTransformerDecoder(
      (pe_layer): Positional encoding PositionEmbeddingSine
          num_pos_feats: 128
          temperature: 10000
          normalize: True
          scale: 6.283185307179586
      (transformer_self_attention_layers): ModuleList(
        (0-8): 9 x SelfAttentionLayer(
          (self_attn): MultiheadAttention(
            (out_proj): NonDynamicallyQuantizableLinear(in_features=256, out_features=256, bias=True)
          )
          (norm): LayerNorm((256,), eps=1e-05, elementwise_affine=True)
          (dropout): Dropout(p=0.0, inplace=False)
        )
      )
      (transformer_cross_attention_layers): ModuleList(
        (0-8): 9 x CrossAttentionLayer(
          (multihead_attn): MultiheadAttention(
            (out_proj): NonDynamicallyQuantizableLinear(in_features=256, out_features=256, bias=True)
          )
          (norm): LayerNorm((256,), eps=1e-05, elementwise_affine=True)
          (dropout): Dropout(p=0.0, inplace=False)
        )
      )
      (transformer_ffn_layers): ModuleList(
        (0-8): 9 x FFNLayer(
          (linear1): Linear(in_features=256, out_features=2048, bias=True)
          (dropout): Dropout(p=0.0, inplace=False)
          (linear2): Linear(in_features=2048, out_features=256, bias=True)
          (norm): LayerNorm((256,), eps=1e-05, elementwise_affine=True)
        )
      )
      (decoder_norm): LayerNorm((256,), eps=1e-05, elementwise_affine=True)
      (query_feat): Embedding(100, 256)
      (query_embed): Embedding(100, 256)
      (level_embed): Embedding(3, 256)
      (input_proj): ModuleList(
        (0-2): 3 x Sequential()
      )
      (mask_embed): MLP(
        (layers): ModuleList(
          (0-2): 3 x Linear(in_features=256, out_features=256, bias=True)
        )
      )
    )
  )
  (criterion): Criterion SetCriterion
      matcher: Matcher HungarianMatcher
          cost_class: 2.0
          cost_mask: 5.0
          cost_dice: 5.0
      losses: ['labels', 'masks']
      weight_dict: {'loss_ce': 2.0, 'loss_mask': 5.0, 'loss_dice': 5.0, 'loss_mask_0': 5.0, 'loss_dice_0': 5.0, 'loss_mask_1': 5.0, 'loss_dice_1': 5.0, 'loss_mask_2': 5.0, 'loss_dice_2': 5.0, 'loss_mask_3': 5.0, 'loss_dice_3': 5.0, 'loss_mask_4': 5.0, 'loss_dice_4': 5.0}
      num_classes: 4
      eos_coef: 0.0
      num_points: 12544
      oversample_ratio: 3.0
      importance_sample_ratio: 0.75
  (maskclip): MaskCLIP(
    (visual): VisionTransformer(
      (conv1): Conv2d(3, 1024, kernel_size=(14, 14), stride=(14, 14), bias=False)
      (ln_pre): LayerNorm((1024,), eps=1e-05, elementwise_affine=True)
      (transformer): Transformer(
        (resblocks): Sequential(
          (0): ResidualAttentionBlock(
            (attn): MultiheadAttention(
              (out_proj): Linear(in_features=1024, out_features=1024, bias=True)
            )
            (ln_1): LayerNorm((1024,), eps=1e-05, elementwise_affine=True)
            (mlp): Sequential(
              (c_fc): Linear(in_features=1024, out_features=4096, bias=True)
              (gelu): QuickGELU()
              (c_proj): Linear(in_features=4096, out_features=1024, bias=True)
            )
            (ln_2): LayerNorm((1024,), eps=1e-05, elementwise_affine=True)
          )
          (1): ResidualAttentionBlock(
            (attn): MultiheadAttention(
              (out_proj): Linear(in_features=1024, out_features=1024, bias=True)
            )
            (ln_1): LayerNorm((1024,), eps=1e-05, elementwise_affine=True)
            (mlp): Sequential(
              (c_fc): Linear(in_features=1024, out_features=4096, bias=True)
              (gelu): QuickGELU()
              (c_proj): Linear(in_features=4096, out_features=1024, bias=True)
            )
            (ln_2): LayerNorm((1024,), eps=1e-05, elementwise_affine=True)
          )
          (2): ResidualAttentionBlock(
            (attn): MultiheadAttention(
              (out_proj): Linear(in_features=1024, out_features=1024, bias=True)
            )
            (ln_1): LayerNorm((1024,), eps=1e-05, elementwise_affine=True)
            (mlp): Sequential(
              (c_fc): Linear(in_features=1024, out_features=4096, bias=True)
              (gelu): QuickGELU()
              (c_proj): Linear(in_features=4096, out_features=1024, bias=True)
            )
            (ln_2): LayerNorm((1024,), eps=1e-05, elementwise_affine=True)
          )
          (3): ResidualAttentionBlock(
            (attn): MultiheadAttention(
              (out_proj): Linear(in_features=1024, out_features=1024, bias=True)
            )
            (ln_1): LayerNorm((1024,), eps=1e-05, elementwise_affine=True)
            (mlp): Sequential(
              (c_fc): Linear(in_features=1024, out_features=4096, bias=True)
              (gelu): QuickGELU()
              (c_proj): Linear(in_features=4096, out_features=1024, bias=True)
            )
            (ln_2): LayerNorm((1024,), eps=1e-05, elementwise_affine=True)
          )
          (4): ResidualAttentionBlock(
            (attn): MultiheadAttention(
              (out_proj): Linear(in_features=1024, out_features=1024, bias=True)
            )
            (ln_1): LayerNorm((1024,), eps=1e-05, elementwise_affine=True)
            (mlp): Sequential(
              (c_fc): Linear(in_features=1024, out_features=4096, bias=True)
              (gelu): QuickGELU()
              (c_proj): Linear(in_features=4096, out_features=1024, bias=True)
            )
            (ln_2): LayerNorm((1024,), eps=1e-05, elementwise_affine=True)
          )
          (5): ResidualAttentionBlock(
            (attn): MultiheadAttention(
              (out_proj): Linear(in_features=1024, out_features=1024, bias=True)
              (q_prime_norm_added_params): LayerNorm((1024,), eps=1e-05, elementwise_affine=True)
              (k_prime_proj_weight_added_params): Linear(in_features=1024, out_features=1024, bias=True)
            )
            (ln_1): LayerNorm((1024,), eps=1e-05, elementwise_affine=True)
            (mlp): Sequential(
              (c_fc): Linear(in_features=1024, out_features=4096, bias=True)
              (gelu): QuickGELU()
              (c_proj): Linear(in_features=4096, out_features=1024, bias=True)
            )
            (ln_2): LayerNorm((1024,), eps=1e-05, elementwise_affine=True)
          )
          (6): ResidualAttentionBlock(
            (attn): MultiheadAttention(
              (out_proj): Linear(in_features=1024, out_features=1024, bias=True)
            )
            (ln_1): LayerNorm((1024,), eps=1e-05, elementwise_affine=True)
            (mlp): Sequential(
              (c_fc): Linear(in_features=1024, out_features=4096, bias=True)
              (gelu): QuickGELU()
              (c_proj): Linear(in_features=4096, out_features=1024, bias=True)
            )
            (ln_2): LayerNorm((1024,), eps=1e-05, elementwise_affine=True)
          )
          (7): ResidualAttentionBlock(
            (attn): MultiheadAttention(
              (out_proj): Linear(in_features=1024, out_features=1024, bias=True)
            )
            (ln_1): LayerNorm((1024,), eps=1e-05, elementwise_affine=True)
            (mlp): Sequential(
              (c_fc): Linear(in_features=1024, out_features=4096, bias=True)
              (gelu): QuickGELU()
              (c_proj): Linear(in_features=4096, out_features=1024, bias=True)
            )
            (ln_2): LayerNorm((1024,), eps=1e-05, elementwise_affine=True)
          )
          (8): ResidualAttentionBlock(
            (attn): MultiheadAttention(
              (out_proj): Linear(in_features=1024, out_features=1024, bias=True)
            )
            (ln_1): LayerNorm((1024,), eps=1e-05, elementwise_affine=True)
            (mlp): Sequential(
              (c_fc): Linear(in_features=1024, out_features=4096, bias=True)
              (gelu): QuickGELU()
              (c_proj): Linear(in_features=4096, out_features=1024, bias=True)
            )
            (ln_2): LayerNorm((1024,), eps=1e-05, elementwise_affine=True)
          )
          (9): ResidualAttentionBlock(
            (attn): MultiheadAttention(
              (out_proj): Linear(in_features=1024, out_features=1024, bias=True)
            )
            (ln_1): LayerNorm((1024,), eps=1e-05, elementwise_affine=True)
            (mlp): Sequential(
              (c_fc): Linear(in_features=1024, out_features=4096, bias=True)
              (gelu): QuickGELU()
              (c_proj): Linear(in_features=4096, out_features=1024, bias=True)
            )
            (ln_2): LayerNorm((1024,), eps=1e-05, elementwise_affine=True)
          )
          (10): ResidualAttentionBlock(
            (attn): MultiheadAttention(
              (out_proj): Linear(in_features=1024, out_features=1024, bias=True)
            )
            (ln_1): LayerNorm((1024,), eps=1e-05, elementwise_affine=True)
            (mlp): Sequential(
              (c_fc): Linear(in_features=1024, out_features=4096, bias=True)
              (gelu): QuickGELU()
              (c_proj): Linear(in_features=4096, out_features=1024, bias=True)
            )
            (ln_2): LayerNorm((1024,), eps=1e-05, elementwise_affine=True)
          )
          (11): ResidualAttentionBlock(
            (attn): MultiheadAttention(
              (out_proj): Linear(in_features=1024, out_features=1024, bias=True)
              (q_prime_norm_added_params): LayerNorm((1024,), eps=1e-05, elementwise_affine=True)
              (k_prime_proj_weight_added_params): Linear(in_features=1024, out_features=1024, bias=True)
            )
            (ln_1): LayerNorm((1024,), eps=1e-05, elementwise_affine=True)
            (mlp): Sequential(
              (c_fc): Linear(in_features=1024, out_features=4096, bias=True)
              (gelu): QuickGELU()
              (c_proj): Linear(in_features=4096, out_features=1024, bias=True)
            )
            (ln_2): LayerNorm((1024,), eps=1e-05, elementwise_affine=True)
          )
          (12): ResidualAttentionBlock(
            (attn): MultiheadAttention(
              (out_proj): Linear(in_features=1024, out_features=1024, bias=True)
            )
            (ln_1): LayerNorm((1024,), eps=1e-05, elementwise_affine=True)
            (mlp): Sequential(
              (c_fc): Linear(in_features=1024, out_features=4096, bias=True)
              (gelu): QuickGELU()
              (c_proj): Linear(in_features=4096, out_features=1024, bias=True)
            )
            (ln_2): LayerNorm((1024,), eps=1e-05, elementwise_affine=True)
          )
          (13): ResidualAttentionBlock(
            (attn): MultiheadAttention(
              (out_proj): Linear(in_features=1024, out_features=1024, bias=True)
            )
            (ln_1): LayerNorm((1024,), eps=1e-05, elementwise_affine=True)
            (mlp): Sequential(
              (c_fc): Linear(in_features=1024, out_features=4096, bias=True)
              (gelu): QuickGELU()
              (c_proj): Linear(in_features=4096, out_features=1024, bias=True)
            )
            (ln_2): LayerNorm((1024,), eps=1e-05, elementwise_affine=True)
          )
          (14): ResidualAttentionBlock(
            (attn): MultiheadAttention(
              (out_proj): Linear(in_features=1024, out_features=1024, bias=True)
            )
            (ln_1): LayerNorm((1024,), eps=1e-05, elementwise_affine=True)
            (mlp): Sequential(
              (c_fc): Linear(in_features=1024, out_features=4096, bias=True)
              (gelu): QuickGELU()
              (c_proj): Linear(in_features=4096, out_features=1024, bias=True)
            )
            (ln_2): LayerNorm((1024,), eps=1e-05, elementwise_affine=True)
          )
          (15): ResidualAttentionBlock(
            (attn): MultiheadAttention(
              (out_proj): Linear(in_features=1024, out_features=1024, bias=True)
            )
            (ln_1): LayerNorm((1024,), eps=1e-05, elementwise_affine=True)
            (mlp): Sequential(
              (c_fc): Linear(in_features=1024, out_features=4096, bias=True)
              (gelu): QuickGELU()
              (c_proj): Linear(in_features=4096, out_features=1024, bias=True)
            )
            (ln_2): LayerNorm((1024,), eps=1e-05, elementwise_affine=True)
          )
          (16): ResidualAttentionBlock(
            (attn): MultiheadAttention(
              (out_proj): Linear(in_features=1024, out_features=1024, bias=True)
            )
            (ln_1): LayerNorm((1024,), eps=1e-05, elementwise_affine=True)
            (mlp): Sequential(
              (c_fc): Linear(in_features=1024, out_features=4096, bias=True)
              (gelu): QuickGELU()
              (c_proj): Linear(in_features=4096, out_features=1024, bias=True)
            )
            (ln_2): LayerNorm((1024,), eps=1e-05, elementwise_affine=True)
          )
          (17): ResidualAttentionBlock(
            (attn): MultiheadAttention(
              (out_proj): Linear(in_features=1024, out_features=1024, bias=True)
              (q_prime_norm_added_params): LayerNorm((1024,), eps=1e-05, elementwise_affine=True)
              (k_prime_proj_weight_added_params): Linear(in_features=1024, out_features=1024, bias=True)
            )
            (ln_1): LayerNorm((1024,), eps=1e-05, elementwise_affine=True)
            (mlp): Sequential(
              (c_fc): Linear(in_features=1024, out_features=4096, bias=True)
              (gelu): QuickGELU()
              (c_proj): Linear(in_features=4096, out_features=1024, bias=True)
            )
            (ln_2): LayerNorm((1024,), eps=1e-05, elementwise_affine=True)
          )
          (18): ResidualAttentionBlock(
            (attn): MultiheadAttention(
              (out_proj): Linear(in_features=1024, out_features=1024, bias=True)
            )
            (ln_1): LayerNorm((1024,), eps=1e-05, elementwise_affine=True)
            (mlp): Sequential(
              (c_fc): Linear(in_features=1024, out_features=4096, bias=True)
              (gelu): QuickGELU()
              (c_proj): Linear(in_features=4096, out_features=1024, bias=True)
            )
            (ln_2): LayerNorm((1024,), eps=1e-05, elementwise_affine=True)
          )
          (19): ResidualAttentionBlock(
            (attn): MultiheadAttention(
              (out_proj): Linear(in_features=1024, out_features=1024, bias=True)
            )
            (ln_1): LayerNorm((1024,), eps=1e-05, elementwise_affine=True)
            (mlp): Sequential(
              (c_fc): Linear(in_features=1024, out_features=4096, bias=True)
              (gelu): QuickGELU()
              (c_proj): Linear(in_features=4096, out_features=1024, bias=True)
            )
            (ln_2): LayerNorm((1024,), eps=1e-05, elementwise_affine=True)
          )
          (20): ResidualAttentionBlock(
            (attn): MultiheadAttention(
              (out_proj): Linear(in_features=1024, out_features=1024, bias=True)
            )
            (ln_1): LayerNorm((1024,), eps=1e-05, elementwise_affine=True)
            (mlp): Sequential(
              (c_fc): Linear(in_features=1024, out_features=4096, bias=True)
              (gelu): QuickGELU()
              (c_proj): Linear(in_features=4096, out_features=1024, bias=True)
            )
            (ln_2): LayerNorm((1024,), eps=1e-05, elementwise_affine=True)
          )
          (21): ResidualAttentionBlock(
            (attn): MultiheadAttention(
              (out_proj): Linear(in_features=1024, out_features=1024, bias=True)
            )
            (ln_1): LayerNorm((1024,), eps=1e-05, elementwise_affine=True)
            (mlp): Sequential(
              (c_fc): Linear(in_features=1024, out_features=4096, bias=True)
              (gelu): QuickGELU()
              (c_proj): Linear(in_features=4096, out_features=1024, bias=True)
            )
            (ln_2): LayerNorm((1024,), eps=1e-05, elementwise_affine=True)
          )
          (22): ResidualAttentionBlock(
            (attn): MultiheadAttention(
              (out_proj): Linear(in_features=1024, out_features=1024, bias=True)
            )
            (ln_1): LayerNorm((1024,), eps=1e-05, elementwise_affine=True)
            (mlp): Sequential(
              (c_fc): Linear(in_features=1024, out_features=4096, bias=True)
              (gelu): QuickGELU()
              (c_proj): Linear(in_features=4096, out_features=1024, bias=True)
            )
            (ln_2): LayerNorm((1024,), eps=1e-05, elementwise_affine=True)
          )
          (23): ResidualAttentionBlock(
            (attn): MultiheadAttention(
              (out_proj): Linear(in_features=1024, out_features=1024, bias=True)
              (q_prime_norm_added_params): LayerNorm((1024,), eps=1e-05, elementwise_affine=True)
              (k_prime_proj_weight_added_params): Linear(in_features=1024, out_features=1024, bias=True)
            )
            (ln_1): LayerNorm((1024,), eps=1e-05, elementwise_affine=True)
            (mlp): Sequential(
              (c_fc): Linear(in_features=1024, out_features=4096, bias=True)
              (gelu): QuickGELU()
              (c_proj): Linear(in_features=4096, out_features=1024, bias=True)
            )
            (ln_2): LayerNorm((1024,), eps=1e-05, elementwise_affine=True)
          )
        )
        (conv1_added_params): Sequential(
          (0): Conv2d(1, 1024, kernel_size=(14, 14), stride=(14, 14))
          (1): Conv2d(1, 1024, kernel_size=(14, 14), stride=(14, 14))
          (2): Conv2d(1, 1024, kernel_size=(14, 14), stride=(14, 14))
          (3): Conv2d(1, 1024, kernel_size=(14, 14), stride=(14, 14))
        )
        (conv3_added_params): Sequential(
          (0): Conv2d(1024, 196, kernel_size=(1, 1), stride=(1, 1))
          (1): Conv2d(1024, 196, kernel_size=(1, 1), stride=(1, 1))
          (2): Conv2d(1024, 196, kernel_size=(1, 1), stride=(1, 1))
          (3): Conv2d(1024, 196, kernel_size=(1, 1), stride=(1, 1))
        )
      )
      (ln_post): LayerNorm((1024,), eps=1e-05, elementwise_affine=True)
    )
  )
)
[05/15 07:31:07] detectron2 INFO: Rank of current process: 0. World size: 1
[05/15 07:31:07] detectron2 INFO: Environment info:
-------------------------------  ------------------------------------------------------------------------------------------
sys.platform                     linux
Python                           3.11.0 (main, Mar  1 2023, 18:26:19) [GCC 11.2.0]
…
