…
I20250610 22:20:41 1931479 dinov2 ssl_meta_arch.py:167] DISTRIBUTED FSDP -- preparing model for distributed training
W20250610 22:20:41 1931479 py.warnings warnings.py:109] /home/ra78lof/anaconda3/envs/fcclip/lib/python3.11/site-packages/torch/distributed/fsdp/_init_utils.py:440: UserWarning: FSDP is switching to use `NO_SHARD` instead of ShardingStrategy.SHARD_GRAD_OP since the world size is 1.
  warnings.warn(

I20250610 22:20:41 1931479 dinov2 train.py:370] Model:
SSLMetaArch(
  (dino_loss): CrossEntropyLoss()
  (student): ModuleDict(
    (backbone): FullyShardedDataParallel(
      (_fsdp_wrapped_module): DinoVisionTransformer(
        (patch_embed): PatchEmbed(
          (proj): Conv2d(3, 1024, kernel_size=(14, 14), stride=(14, 14))
          (norm): Identity()
        )
        (cls_embeddings): Linear(in_features=2, out_features=1024, bias=False)
        (blocks): ModuleList(
          (0-23): 24 x NestedTensorBlock(
            (norm1): LayerNorm((1024,), eps=1e-06, elementwise_affine=True)
            (attn): MemEffAttention(
              (qkv): Linear(in_features=1024, out_features=3072, bias=True)
              (attn_drop): Dropout(p=0.0, inplace=False)
              (proj): Linear(in_features=1024, out_features=1024, bias=True)
              (proj_drop): Dropout(p=0.0, inplace=False)
            )
            (ls1): LayerScale()
            (drop_path1): Identity()
            (norm2): LayerNorm((1024,), eps=1e-06, elementwise_affine=True)
            (mlp): Mlp(
              (fc1): Linear(in_features=1024, out_features=4096, bias=True)
              (act): GELU(approximate='none')
              (fc2): Linear(in_features=4096, out_features=1024, bias=True)
              (drop): Dropout(p=0.0, inplace=False)
            )
            (ls2): LayerScale()
            (drop_path2): Identity()
          )
        )
        (norm): LayerNorm((1024,), eps=1e-06, elementwise_affine=True)
        (head): Linear(in_features=1024, out_features=4, bias=True)
        (loss_fct): CrossEntropyLoss()
      )
    )
    (dino_head): FullyShardedDataParallel(
      (_fsdp_wrapped_module): DINOHead(
        (head): Identity()
      )
    )
  )
)
I20250610 22:20:41 1931479 dinov2 loaders.py:79] using dataset: "Custom:../../../../../ceiling_dataset_for_ViT-P"
I20250610 22:33:53 1932234 dinov2 config.py:59] git:
  sha: 1596e6f1e36584c34ee04adf8b44a688123a773d, status: has uncommitted changes, branch: main
…
